Mikkels Løsning/q_net.pt (torch, 322804 bytes, 6 tensors)

0.weight f4 [256, 51]
00000000: d25c babd 0d55 97bd 388f 3f3d 5ccb dd3d
00000010: 8b15 dcbc 4000 243d cee2 f83b 00fa b03c
00000020: 37c7 0abd bb43 a73d ca40 4a3e a755 7d3e
00000030: 65c3 683d 91cc 6d3d 9ec2 ff3d 70e7 223c
00000040: 07ee 093d 8ad9 993d 094d b7bd a241 90be
00000050: c71e d43d 5e2e aabe aa0f 813d 9bf3 7abd
00000060: a479 a93d c89e 463d f80b eebd 88bb 8b3d
00000070: e232 a03d 837c 183e 896a 933e a2a8 e53d
00000080: dff1 6cbd b8f4 663d 73cf b13d 9054 b8bb
00000090: fac4 ae3d 8753 f63d 84f8 9dbd fa4b cd3d
000000a0: c8be d33d 08c3 953d db7f 043e c447 31bc
000000b0: 00fb 043e be93 023e d9f7 0ebd 444c 953d
000000c0: 9ecf b9bd 3f6d 4b3b 77df 933d d8f1 0b3c
000000d0: c596 ad3c 2f82 2e3c b9dc 903d 90ea 5e3e
000000e0: 30d2 f4bd 8e85 e2bc 1d19 87bd 4072 103e
000000f0: 8ad8 7f3d 255b 313d f479 6a3e 2f44 673c
00000100: 2af9 943d b4d6 993d 038d 8e3d 782e 40bc
00000110: e93a 8a3e 0467 793e d866 c3bd c4e4 e63d
00000120: dcc9 563d 072b 5a3e 3e84 873e bacd f93d
00000130: daa9 c63d 18ef 733e 28d7 01be cd14 abbd
00000140: 5db7 fbbe 7e6f 76be 1093 85bd 328d 5abd
00000150: 381b d33c c92b d83c d6ed f53d cacb 123d
00000160: 6bea 66bd 9b31 5abd aa8b 093e caa6 273e
00000170: 7ad5 35bd bbbb 21bc a923 2dbd 1aae 843d
00000180: 9c04 c13c bf5d dfbd 6484 8c3d 8fba c73d
00000190: 977c ad3d 1610 0b3d 4fae 893d a878 903d
000001a0: af30 893d b743 6e3c d970 7ebd bbee 1abc
000001b0: deea 06bd 0cce 083c 7f17 383d 8731 6c3c
000001c0: a783 fb3d 7eb9 843e c0b6 1abe fbdb 09bf
000001d0: f077 09be f13b 59be f56b 513b f02f 5b3e
000001e0: 2502 f73c a6ad 0dbc dfe0 32bd 4e14 20be
000001f0: f96f d43b b0c4 d6bd ba4b acbd d4b9 9a3d
00000200: 0079 1e3d e535 dabc e3bd 3e3e ed98 d13e
00000210: bb9f d53d 33d0 143d e977 f73d 9b2c 0e3d
00000220: 1fd1 513e ff11 7a3e 69dd 3cbb d671 383e
00000230: ce0b 80bd 2442 00bb 1762 d5bd 22b8 bfbd
00000240: d7d4 8bbd 8466 d73d 5afd cbbc 8a69 553d
00000250: 61f6 e13d b7f6 cbbd 719c ac3c 5fcb a6bd
00000260: d80c 17be 7860 20bc a1e6 36be ea3e 32bc
00000270: 6535 a23d 5f65 f13d 561e 2ebe caca 253c
00000280: c7f0 853c 5f76 94bc a860 ad3d 3a5c 7dbc
00000290: 80dd 3e3e 236f c83d a976 01be 806a 5f3e
000002a0: 7761 4a3e a167 653e bafa 69bb 2cec 5abe
000002b0: 1033 e2bd 06ec d03d 3b99 583c 623b 203e
000002c0: 54f3 b6bd aafb 4c3d 60aa 3a3d 2410 b0bc
000002d0: 9955 0d3e 41eb 8fbe 3ca7 23be 2198 083e
000002e0: 09bc 013e 7eeb 54be 5dc2 a0bd b416 cb3c
000002f0: 3e75 3c3d a6c8 6d3d d267 183e 3572 0c3e
00000300: a6f8 ae3d 9587 12be 08f4 f9bd b450 093e
00000310: beae c23d 4ede 1f3c 90c9 86bd ec3a 3e3d
00000320: 433a 27be 40cf 0e3e 95c8 9dbd 7c9e d0bd
00000330: 650e c13d af4f 1dbd 5f59 6b3d 38c2 50bd
00000340: 7f7a 1d3d 1592 883d c6a5 9c3d 7908 833d
00000350: c8eb 493e dfac 913e 57a3 b83d aaba 473e
00000360: f8e3 753d 3729 393e 79c1 0f3e ae6f c13c
00000370: 4f03 923e 5033 753e f3b6 f9bc 7281 90be
00000380: 584f d33c a6e3 8c3e 13ec 913d 9151 4abc
00000390: c3de 243e df0f 1b3d 9f0a 703e 4a50 7abd
000003a0: 2c35 a6bd ceea 72bd f629 60be dcad 193c
000003b0: 52e1 68bd f12d 1b3e 7cc8 14bb 25da 5a3d
000003c0: e439 eb39 b51a aabd ca97 583e 81c5 9f3d
000003d0: 9095 463e b749 fdbd 309b 173e 9eb4 ef3d
000003e0: 2fba e0bd d314 ef3c a9a5 1ebe f449 183d
000003f0: 70a7 92bc 7b6e 4c3e 87a0 4f3d 8d91 103e
-0.09099735 -0.07389269 0.046767443 0.10829803 -0.026865741 0.0400393 0.0075953966 0.021603584
-0.033881392 0.081672154 0.19751278 0.24739705 0.056826968 0.058056418 0.12488292 0.009942874
0.033674266 0.075121954 -0.0895024 -0.28175074 0.10357433 -0.332385 0.06301816 -0.061267477
0.08275154 0.04849127 -0.116233766 0.06822878 0.07822205 0.14891247 0.28792217 0.11213805
-0.057847854 0.056385726 0.08682146 -0.005625315 0.08533664 0.1202765 -0.07713416 0.10024257
0.10339123 0.0731259 0.12939398 -0.010820333 0.12986374 0.12751672 -0.034904335 0.07289937
-0.09072803 0.0031040458 0.07220357 0.008541547 0.021190057 0.010651155 0.070733495 0.21769166
-0.119541526 -0.027651574 -0.06596587 0.14106083 0.062462367 0.043299813 0.22898084 0.014115377
0.07274087 0.075116545 0.069604896 -0.011729829 0.2699807 0.24355704 -0.095411 0.11274102
0.0524386 0.21305476 0.2646808 0.12197442 0.09700365 0.23821676 -0.12679732 -0.08353577
-0.49163333 -0.24065968 -0.065221906 -0.05335731 0.025769815 0.026388066 0.12008254 0.03583888
-0.056375902 -0.053269964 0.13432184 0.16372219 -0.04439304 -0.009871419 -0.042270336 0.0647852
0.023561768 -0.109065525 0.06861189 0.0975238 0.08471029 0.033950888 0.067227 0.07054263
0.06698739 0.014542512 -0.06211934 -0.009456332 -0.03293883 0.008349907 0.044944283 0.014416105
0.1228097 0.2592277 -0.15108776 -0.5385129 -0.13424659 -0.21214272 0.0031955217 0.21405005
0.03015239 -0.008647358 -0.043671485 -0.15632746 0.0064830747 -0.10486734 -0.08412881 0.07554975
0.038689613 -0.026637027 0.18627124 0.40936986 0.10430857 0.036331367 0.12083418 0.034710508
0.2048993 0.24420927 -0.0028818494 0.18012175 -0.062522516 -0.0019570673 -0.104191 -0.093612924
-0.06827705 0.105176 -0.02490108 0.052102603 0.11033321 -0.099591665 0.02107069 -0.08144259
-0.14750993 -0.009788625 -0.17861415 -0.010879258 0.079203404 0.11786913 -0.1700376 0.010119149
0.016350163 -0.01812285 0.08465701 -0.015463883 0.18639183 0.09786823 -0.12642922 0.2181797
0.19763742 0.22402813 -0.0035702423 -0.21379155 -0.11044896 0.10201268 0.013220127 0.15647653
-0.0893313 0.050044693 0.04557264 -0.021492071 0.13802184 -0.28109172 -0.15981764 0.13339283
0.12669386 -0.20792958 -0.07849572 0.0247911 0.04601025 0.05805268 0.14883354 0.13715442
0.0854352 -0.14309533 -0.122047484 0.13409692 0.09505986 0.009757591 -0.06581414 0.04644291
-0.16330819 0.13946247 -0.077042736 -0.101864785 0.09426574 -0.03840607 0.057458278 -0.05096647
0.0384469 0.06668488 0.07648806 0.063981004 0.1971885 0.28452203 0.090155296 0.195048
0.06003186 0.18082128 0.14038648 0.023612823 0.2851815 0.23945355 -0.030482745 -0.2822376
0.02579467 0.27517432 0.07125106 -0.0123485485 0.16100602 0.037856933 0.23441552 -0.061111726
-0.081156105 -0.05930596 -0.21891007 0.00937983 -0.056855507 0.15154244 -0.0022702506 0.053430695
0.00044865825 -0.08305875 0.21151653 0.07801343 0.19392991 -0.123675756 0.14805293 0.11704372
-0.10973012 0.029184734 -0.15492882 0.037179902 -0.017902106 0.1996402 0.0506902 0.14118023

0.bias f4 [256]
00000000: 46f8 103e bb1d 143e 1111 8dbd 90e9 193e
00000010: ecf1 44bc 9240 3e3e 8fb8 e8bc bf0f f6bc
00000020: e63b 233e 633c bc3d 979c 043e f4b1 f63d
00000030: 67b4 053e 16d7 f43d dbb7 1f3e c365 5abd
00000040: c5b3 7e3d 5fe0 fb3c 5d28 b73d d1d3 af3c
00000050: 4025 6f3e 2fcc 023c ef97 a5bc b16b fb3d
00000060: 3c23 513e 6257 b23b cad0 b8bd 4e07 633d
00000070: 604a f73d e67b 7b3d 9336 81bc 6911 053e
00000080: 6e1d ec3d 8a47 0c3e 3e7f 833e 8655 983d
00000090: 506d 463e ae7f 8b3c bbdc d83c 9cdd aa3d
000000a0: 82b7 943d ac40 3b3e 8531 25bd c06b 8c3d
000000b0: 0490 2b3e e718 383e d507 1a3c 696c d1bd
000000c0: e407 5f3e 4947 b43c ad2e afbb a1d8 1d3e
000000d0: 5437 6f3e 1a80 513c a2a0 cebd 94cf 003e
000000e0: 1308 d73d 335a b73d eea6 f2bd 2d8e dabc
000000f0: 0a84 b5bc 4682 2d3e 3519 9e3c 1883 95bd
00000100: 317a 63bc 1791 9b3d 0db3 c13d 3566 533d
00000110: 7111 9dbd d482 de3d fc9f 553e 0f27 2a3e
00000120: eac2 1c3e 3f17 013e d80e 56bd 53ed 3d3e
00000130: 306e 793c 7bff 293e b3a9 633b 3b3c 2a3c
00000140: ae86 b63d 71ca 063e 6fae 163e cab4 6b3d
00000150: 2dc5 dd3c 415a 203e 5aff 253e 2231 7f3d
00000160: 7352 ae3c 64ae 3a3e f7ca 29bd e927 b43d
00000170: d3b2 b43b 9359 6c3d c470 c43d a2e1 2c3e
00000180: 88ad bc3d 66b5 2a3e 02e4 253e a735 24be
00000190: b025 773e 8d56 ed3d 5d65 503d ed3b e63d
000001a0: 2f38 c33d bf90 efbd 9b69 2cbd 968f 043e
000001b0: 9734 033d ab69 af3d 64f8 0b3e b64f 23bd
000001c0: d070 d5bc adea df3c 3863 713d e502 563e
000001d0: 40ad 843d d531 113e 2e1d 39be 983d 123e
000001e0: a028 8b3e 158a 00bd a29d 123e 683a ecbc
000001f0: ddaa e83d a062 f33d bc3c 333d d5c9 dcbd
00000200: c7c3 ce3d 9d46 ad3d 0750 373d aa8d 183d
00000210: 4b74 723e a2f2 bd3d 522b fe3d d960 83bd
00000220: 9ba3 32bb 6e58 3d3e efd8 7a3e 5e88 c4bc
00000230: 9b8a 673c fd13 983d 4d5b 153d 3618 7cbd
00000240: 0360 113e c718 f03d 5673 9abd 75dd c23d
00000250: 81f3 db3d 77ce 75bc 24b9 0c3e cb60 053e
00000260: 8cf2 f3bd 4cf5 6f3e 57c8 893d 585a 813b
00000270: ec49 26bd ea45 f53d 846e 44bd 4a67 a63d
00000280: 44c5 583d ecb4 eb3d 4789 893d e315 d13d
00000290: e08c 583d 2c78 933d fa6c 9bbd 5973 1e3e
000002a0: 6dce 063e cacc 003e 4586 413e 8e13 923d
000002b0: 4dbd 10bd 064b e63d 1017 223e cbf2 173e
000002c0: ef26 ae3d d77b 5e3e aa9b 523e 6167 09be
000002d0: 4b32 df3d 24ac 78bd 7c4f 1b3e 7270 92bd
000002e0: 24e4 0e3e 4380 313e 7cff bd3d 711f 7e3d
000002f0: 1a31 813d eb0d 2e3e dfcf d13c 614b 8e3d
00000300: 3166 da3d 7db8 403e 4351 97bc 2137 fabc
00000310: c508 1abd 8886 4ebd fb88 913d 201f f1bd
00000320: d575 713d 2a16 463e 9970 693e 9cac f1bd
00000330: 63ed 733e 32ce d5ba fd20 303e 7df9 6c3d
00000340: aed6 9abd 8673 193e 9950 ff3d 3c7a 053e
00000350: 9781 cabd 1565 073e 9243 05be f921 273e
00000360: 7cda 2c3d 68a4 26bd dd20 063e 328c 3d3e
00000370: 85be b83d f023 0b3e 9432 bd3d 3fc2 a8bc
00000380: 2c19 8f3c a4f8 08bd acb9 433e 29f5 223d
00000390: cfb8 c33d fcff b43d 0af2 2b3e 7d41 263e
000003a0: 79fc 503e 54d7 4a3e 8970 053d aa08 163e
000003b0: c285 003e 7f6f 5f3d c020 643e 0387 523c
000003c0: bd3a 1b3e 2757 cb3c e3bd 0ebd 8b72 f7bd
000003d0: 31cf 893d fbef 843e bf7c 97bd f69b 2f3e
000003e0: 2e78 593e bc62 253e 8b2d aabb 8c92 053e
000003f0: 9b90 813c 29e7 9ebb 6c4f 163e b0c2 813d
0.14157209 0.14464466 -0.06888021 0.15030503 -0.012020569 0.18579319 -0.028408317 -0.030036805
0.15940818 0.09191205 0.1295036 0.120456606 0.130571 0.11955087 0.15597479 -0.053319704
0.06218316 0.030746637 0.089432456 0.021463307 0.23354053 0.0079832515 -0.02021405 0.122764
0.20423597 0.0054425457 -0.09024198 0.05542689 0.12074733 0.061397456 -0.015773093 0.12994923
0.11529051 0.13699165 0.25683016 0.07438187 0.19377637 0.017028656 0.02647244 0.0834305
0.07261564 0.18286389 -0.04033043 0.06856489 0.16754156 0.1797825 0.009401281 -0.10225756
0.21780354 0.022006648 -0.0053461404 0.15414669 0.2336095 0.012786889 -0.10089232 0.12579185
0.10499587 0.08952751 -0.118482456 -0.026679123 -0.022157688 0.16944227 0.019299129 -0.07300395
-0.013884113 0.07596033 0.09457979 0.051611144 -0.07669342 0.10864797 0.2086181 0.16616462
0.15308729 0.12606524 -0.05226025 0.18547563 0.015224025 0.16601364 0.00347386 0.010390337
0.08912407 0.13163163 0.14714979 0.05754546 0.02707156 0.15659429 0.1621069 0.062302716
0.02127955 0.18230587 -0.041453328 0.08796675 0.0055144816 0.057702612 0.09591821 0.16882947
0.09212786 0.1667076 0.1620026 -0.16036092 0.2413547 0.11588774 0.050877918 0.11241899
0.095322005 -0.1169753 -0.0420929 0.12945399 0.032032575 0.085650764 0.13668972 -0.03987094
-0.02605477 0.027333582 0.058932513 0.20899542 0.06478357 0.14179166 -0.18077537 0.14281309
0.27179432 -0.031381685 0.14317945 -0.028836444 0.113607146 0.118840456 0.043759093 -0.10780684
0.10095935 0.08460734 0.044754054 0.037244476 0.23677175 0.09274794 0.124106064 -0.064149566
-0.002725816 0.18490764 0.24496816 -0.023990806 0.014132167 0.074256875 0.036464024 -0.061546527
0.14196782 0.11723476 -0.0754153 0.09514896 0.10739804 -0.015002838 0.137425 0.13025205
-0.119114965 0.23433417 0.06727665 0.0039475374 -0.04059784 0.11976226 -0.04795696 0.081251696
0.052922502 0.115091175 0.06715637 0.10209253 0.052868724 0.07200655 -0.07589145 0.15473689
0.13164683 0.12578121 0.18898876 0.07132636 -0.03533678 0.11244778 0.1582911 0.14838712
0.0850352 0.21726929 0.20567194 -0.13418342 0.108982645 -0.06071104 0.1516704 -0.071503535
0.13954216 0.17334084 0.092772454 0.062041704 0.063081935 0.16997497 0.025611816 0.06947971
0.10664023 0.18820377 -0.018471366 -0.030543866 -0.03760602 -0.050421268 0.07106205 -0.11773515
0.058950264 0.19344392 0.22796859 -0.11800501 0.23821025 -0.0016312061 0.17200084 0.057855118
-0.07560478 0.14985475 0.12466545 0.1303491 -0.098879986 0.13222153 -0.13014057 0.16321553
0.04220055 -0.040684134 0.13098474 0.18510512 0.09020714 0.13587928 0.09238163 -0.020600436
0.017468058 -0.033440247 0.19113797 0.039784584 0.09556734 0.08837888 0.1679155 0.1623592
0.2040881 0.19808704 0.032578025 0.14651743 0.12551025 0.05454969 0.22278118 0.012849572
0.15159126 0.02482183 -0.03484906 -0.12082394 0.06728972 0.2596434 -0.0739684 0.17149338
0.21237251 0.16150945 -0.0051934174 0.13044184 0.015816024 -0.004849334 0.14678735 0.06335962

2.weight f4 [256, 256]
00000000: 7a9a 6a3d 1708 933a da66 653e a40c ddbb
00000010: bc59 363e b69f 04bd c8fe 343e 8859 bb3d
00000020: 3e0b 013e 172d 313e 1506 2f3e 10bc 9fbc
00000030: e51e 3d3e f835 08be 09ea f0bc 2bd0 653e
00000040: dea7 b33e 6f22 3f3d 419e 83bc 72b0 b13e
00000050: 9b03 203c a1c7 313e dda6 b3be f10a 29bd
00000060: b14d 28bc 9cb9 0c3e 4e8f 803e 6a40 233e
00000070: 4ace 8e3e a633 0f3d f134 00bd 4e00 53be
00000080: ae7b 183e 0763 713d dcc2 223e 00c1 64bc
00000090: 65f1 42be fb60 c23e 6932 bdbc bd4a 583e
000000a0: f979 22be c58c 16bd 1c40 e3be f820 1f3e
000000b0: 75e3 8f3e d2b1 513e 04be 213e 1c3b 5d3e
000000c0: 60bb 7cbc 1d60 39be 01ac a83d f27a ea3d
000000d0: 16a1 083e e181 8f3c 5bf4 413e 1524 84bd
000000e0: 8e39 17be 0339 60bd 8151 1c3e 654b 463d
000000f0: c2df d33e a7a9 8f3d 52f6 8a3d 58f6 033e
00000100: 29b0 4abe 1d1b 483d b94d 2bbc 934d 67be
00000110: a1fe 07bf cbff 003d c044 443e f48e 633d
00000120: d870 85bc bdb0 ac3b 0d23 fcbd b426 63bd
00000130: c0fa 4dbe 2bdd 0f3b 3582 dcbb 6d22 e9bd
00000140: f664 b53c d773 9ebd 565d ee3d a371 aa3b
00000150: 2866 9a3d 8430 1fbe b845 f5bc 1c41 8fbd
00000160: 5a95 26be 7149 723c 8ed1 ca3e 2d9d f33c
00000170: 6351 163e 3fda d5bd 250d 2a3e 02c7 86bd
00000180: 641a dd3c 93f2 183e 043c 2d3e 56e8 313e
00000190: 0813 fabd 1f44 833e be3b 313e e1a2 7a3e
000001a0: ccb3 513d fdf7 063e 5c22 573e 98c1 08bd
000001b0: e59e 8d3e cee8 013e 13a6 e9bc ed90 133e
000001c0: 3280 de3e 0837 643c 1a7d e4bd c5f2 123e
000001d0: a0f7 e03a 4915 38be 252e 743e a9d5 27bc
000001e0: bff6 df3d 10fe a73e 32dc cfbc a08a 0d3f
000001f0: 0f5d f4bd e721 6e3d 5a6d 843e 7339 493e
00000200: 79a9 413d b7c4 f53d ca4a 1b3e a86f 98bc
00000210: 3ad3 153d 63aa a93b 0432 d2bd 7257 253e
00000220: f430 483e 0b11 14be 397a 5bbc 7685 913e
00000230: 7dc4 0e3e c45f 5a3e eae9 0d3e eda5 b5be
00000240: 534e 48bd 7ddd 353d 70ef 213e 01c9 393e
00000250: 101a aebd 9357 3fbf 79cc f23d 0f3b 583e
00000260: 53e2 cfbe 8b86 0bbe 0ddc 823e ae9b 9abd
00000270: 026a ca3e e8f4 fabd 5c01 fa3d 729f 6e3d
00000280: af49 c53c 1f2f 22bb 47be 363d 13d6 b53e
00000290: 295f 6c3d 76c8 863e cf9b 373e 45a8 733d
000002a0: 791e 9c3d 6d13 56bd 8237 0e3e 2aa8 b53d
000002b0: 4d31 c23d f963 d23c 9ac9 613e b371 e43c
000002c0: 40c9 e13c 56d2 b0bc b226 61bd 87d0 50bf
000002d0: f391 d3bd e8ab b03d 7b44 363e 92df 9c3e
000002e0: 5d5a 4b3e 2a74 993e 557b c23e 115b 28bf
000002f0: 6aa9 6cbe 76e9 30be 44fe 803e 9c61 de39
00000300: 5156 563e ede0 683e 113f 53bc e18b b93d
00000310: 707d 763e 5d36 993e 80e1 7b3e 16f3 f83e
00000320: 1946 9c3d 45ef 383c fd8a 3dbc e68e 5b3e
00000330: da63 02bd 5acf 9cb8 5169 9f3d 0bb5 593e
00000340: 1a24 393e c0f8 b0be 4797 233d 23c4 b13e
00000350: af94 243e 72a5 e03d eeab cf3d 863f 5fbd
00000360: 728c 4cbe 16bc 4f3e 967e 593e 49a3 f6bd
00000370: a06f 06be 721c 1a3b c5b2 943e 1039 8f3e
00000380: e5b3 623e 7df7 233e 5641 cb3c 7965 c83e
00000390: 57a0 62bd 7317 a63d ec7a 913d 0d12 b5bd
000003a0: a7f2 e0bc 0eb6 c83e 2474 a43c 53b3 9d3a
000003b0: c18a b23d b826 683e 6d7b e4bd af3f 2f3e
000003c0: 4a0e 323d c2e5 8e3e 11bd a0be 5a46 633e
000003d0: 40c2 4a3e 81d3 58bd 2084 5f3e 489d 033d
000003e0: bf0e d0bc b549 4e3d 7d5f 423e 8364 ee3d
000003f0: ff57 ddbc a1fd 193e cf21 ab3c d45c 443d
0.057276227 0.0011217621 0.22402516 -0.0067458916 0.17807668 -0.032378875 0.17675316 0.09147936
0.12601945 0.17302357 0.17092164 -0.019498855 0.18468817 -0.13301837 -0.029408472 0.22442691
0.3508901 0.046663698 -0.016066672 0.3470493 0.009766485 0.17361309 -0.35088244 -0.0412702
-0.010272429 0.1374268 0.25109333 0.15942541 0.2789176 0.034961365 -0.03130049 -0.20605585
0.1489093 0.05893233 0.15894645 -0.01396203 -0.19037397 0.37964615 -0.023095326 0.2112226
-0.15866841 -0.036755342 -0.4438485 0.1553992 0.28103223 0.2047799 0.15795141 0.2160458
-0.015425533 -0.1810307 0.08235932 0.11449231 0.133427 0.017517986 0.1894087 -0.064521946
-0.14768049 -0.05474187 0.15265466 0.048411746 0.4138165 0.070147805 0.06785263 0.12886941
-0.19793762 0.048853982 -0.010455542 -0.22588186 -0.5312291 0.031493943 0.19166851 0.055556253
-0.01628916 0.0052700923 -0.12311373 -0.055456832 -0.20115185 0.0021951895 -0.006729389 -0.11383519
0.022142868 -0.077369384 0.11638896 0.005201535 0.07539016 -0.15545851 -0.029940471 -0.069948405
-0.1626791 0.014788018 0.39613003 0.029738033 0.14679484 -0.10442018 0.16606577 -0.065809265
0.026990123 0.14936285 0.16917425 0.17373785 -0.12210661 0.2563791 0.17307946 0.24476196
0.05119686 0.13180538 0.21009201 -0.03338775 0.2766029 0.12686464 -0.028521573 0.14410754
0.4345718 0.013929136 -0.11156674 0.14350422 0.0017163642 -0.1797687 0.23845728 -0.010243812
0.10935735 0.32811022 -0.025373552 0.5528965 -0.11931812 0.0581378 0.2586468 0.19650821
0.047280762 0.12000411 0.15165249 -0.01860793 0.036578394 0.0051777824 -0.10263446 0.16146639
0.19549924 -0.14459626 -0.013395839 0.28422135 0.13942142 0.21325594 0.13858762 -0.35478154
-0.04890282 0.04440068 0.15813994 0.18143083 -0.08501065 -0.74743 0.11855406 0.21116279
-0.4060236 -0.13625543 0.2555851 -0.07549225 0.39534003 -0.122537434 0.122072905 0.058257528
0.024082987 -0.0024747325 0.044615056 0.35514888 0.05770794 0.26324815 0.1793053 0.059486646
0.07623 -0.05226462 0.13888362 0.088699654 0.0948206 0.025682436 0.22049561 0.027886247
0.027561784 -0.021584671 -0.054968543 -0.8156819 -0.10330572 0.086265385 0.1779956 0.3063932
0.1985869 0.2997144 0.3798472 -0.65763956 -0.23111501 -0.17276558 0.2519399 0.00042415864
0.20931365 0.22742052 -0.012893454 0.09059883 0.24071288 0.29924288 0.2459774 0.4862296
0.076305576 0.011287515 -0.011568782 0.2144123 -0.031833507 -7.477282e-05 0.077837594 0.21260469
0.18080178 -0.3456478 0.03993919 0.34719953 0.16072343 0.10969056 0.10140215 -0.05450394
-0.1997545 0.20286593 0.21239695 -0.12042863 -0.13128519 0.002351549 0.2904264 0.27973223
0.22138937 0.16012378 0.024811428 0.39139917 -0.055328693 0.08109941 0.071035236 -0.088413335
-0.027459456 0.39201397 0.020074911 0.0012031592 0.087178715 0.2267102 -0.11156354 0.17114137
0.04347066 0.27909666 -0.31394246 0.22194806 0.19800663 -0.05293608 0.21827745 0.032132417
-0.025397656 0.05036326 0.18981738 0.11640265 -0.027019499 0.15038158 0.020890145 0.04794009

2.bias f4 [256]
00000000: 8331 b2bc 856b 06bd 7428 c03d f287 4a3d
00000010: 1e58 d6ba f935 1e3b 4b91 18bd 0660 653d
00000020: 3148 49bd 2cf3 8b3d 39e2 0fbd 0e3f af3c
00000030: 3706 0abc a0bd 82bd 696b 143d ff0b 5e3d
00000040: 4f3a eabc 27f3 aabb 3116 1a3d d83b 133d
00000050: 462f 04bd 4765 233d 8adf 47bb 8509 de3b
00000060: 8964 2a3d 926c edbc ac9c 533c f8bc 293c
00000070: de1d a3bc 8fca 783b bdd9 f3bc 0525 273d
00000080: 129e f1bc 4b8f 8ebd 9f9f 83bc 3dd7 733c
00000090: 7ac7 1e3d e3d1 d33d 4131 adbd edc7 a93b
000000a0: 5b10 6bbd a51e 353e ed9d 85bc 2b10 8abd
000000b0: 1ce7 12bc cff3 b0bb 02b8 95bb 3ed6 ad3d
000000c0: 5ff3 bfbd 902e 66bd f7b5 2abd 3900 a13b
000000d0: 6ae8 d3bc 43b1 763d 92aa a1bb e123 73bc
000000e0: 2143 1abc bf68 dfbc 7026 2f3b f8d1 e83d
000000f0: ff9e b4bb 76fd 493c afc0 8d3d f150 65bd
00000100: 7efa 43bd 99f4 59bd 0927 493d 803b 873c
00000110: 696d 993d 8325 1a3e 1b4a 573d e7f1 243d
00000120: 5296 37bd 320a 90bb 9360 5d3b ee87 8c3d
00000130: 9352 743c 7030 c93d 28cf 433d 2aa4 5d3c
00000140: cd81 3dbd 49aa 00bd 9991 5e3d 467f b7bc
00000150: 9b20 8a3d 4ef2 3d3d 027d c33b 46e8 70bb
00000160: 3935 ba3c 34a1 183d 0db3 b8bd 49c3 03bc
00000170: 6ad8 f83d 2566 3a3a e65c bcbc f2b4 d5b9
00000180: 7c20 c8bd 42fb afbd 3c57 22bb f8c5 8d3d
00000190: f533 5c3d d9f8 eebc e4ff f43c 91f8 523c
000001a0: 8438 89bd b280 913d b676 edbc c7d1 9abc
000001b0: 8fad 323b b087 993c e537 5fbc 9c8a 003c
000001c0: c689 e8bd 2b15 0cbd 14ac d3bd bc4d 7c3d
000001d0: a252 b93c c52d 163e 851e 10bd 1ce7 353d
000001e0: 057e 35bd 9964 93bb 12d4 073e f5b6 463c
000001f0: 79c8 003e 2571 033e f704 3dbd 36a2 8cbd
00000200: e7ed abbc 9c0f cd3d e3dc b6bc 23b4 e2bb
00000210: 375c a2bc 5bc9 bd3b f6c7 723d 8812 62ba
00000220: 832b 573d 1a32 59bd a62b 913d 4e35 6f3d
00000230: df8c c8bc bdfd 2f3d 01b9 fa3c 4375 c8bd
00000240: 5758 a93d acdc 58bd 12eb 33bd d90b 343d
00000250: 7e69 6dbd 34b5 33bc 8671 163d b5b4 ae3d
00000260: 0ab4 ab3d feee 8abd 5f32 173e dfdc 493d
00000270: 860e 09bb 515a 1a3d 5c9f 193c 4701 9a3c
00000280: 1bc6 a0bd 6afd 8abc db81 d9bd 4e1b 2b3e
00000290: 7d0b 67bd 0795 e2bd 687b db3d 023c 76bd
000002a0: f049 99bb 3cb7 83bd 43e0 a43d 16e2 583d
000002b0: 64d1 00bd 7db1 eb3c 5a3c 353d 4526 d4b8
000002c0: 75fc 023e 3d7f 1a3e 6779 063c f18b 013b
000002d0: aac8 ba3d 7b22 613d c2e5 c33b 07e1 0f3d
000002e0: 7968 68bd d315 393d cc5f 5b3d 4a8a 2f3d
000002f0: 6f09 303d 712e 503d 2a9a 01bc 2a75 f53d
00000300: a893 77bd b225 0a3d 931f 8d3c 6c26 923d
00000310: 43a1 0c3d e225 81bd f3b1 cebd 3ea1 233b
00000320: 351b 863d 1480 abbc 654a e0bd 6fec 55bd
00000330: 477c 9bbd 575a a9bd 24b9 bc3c 499f 0d3a
00000340: 9e49 92bb eede a2bc ebaa 9ebc 12a8 593d
00000350: 7937 703d 4cb5 7c3c 2f17 a3bc 202c 91bd
00000360: 158f 383e 8a54 033d dd06 0a3d 7d09 243b
00000370: a39b 98bd 1ab3 7bbd 6d8d d03d 7197 e33c
00000380: 45ea a33d 8243 643d 5632 18bc 0b16 10bd
00000390: 90ab 373d 9c1f 24bd b32c a6bc a43a a2bd
000003a0: 2bc5 abbd b88a 333c 878d 40bb d789 dd3d
000003b0: 9222 51bd 36c2 9f3c 09ed c8bc 353f 3b3e
000003c0: 9e73 8d3c 292f 1cbd 5074 f23b e207 fb3c
000003d0: d716 01bd 46d3 09bd e061 99bd 2e14 fd3c
000003e0: e6f1 1e3a a75e e83c 5c83 083e dbf2 12bd
000003f0: cb6c b4bc 19c6 2dbd 6661 03bd d201 eb3c
-0.021752125 -0.032817382 0.09382716 0.049446054 -0.0016353165 0.0024141057 -0.037247937 0.05599978
-0.049141113 0.06833491 -0.035127852 0.021392372 -0.008424333 -0.06383824 0.036235247 0.05421066
-0.028592257 -0.0052169743 0.03761882 0.035945743 -0.032271646 0.039891507 -0.003049823 0.006776037
0.041599784 -0.028982434 0.012915771 0.010359995 -0.019911703 0.0037962531 -0.029766912 0.04080679
-0.02949432 -0.06960925 -0.016067324 0.01488286 0.038764454 0.10342767 -0.0845666 0.0051813037
-0.057388645 0.17687471 -0.016310656 -0.06741365 -0.008966234 -0.005400158 -0.0045690546 0.08488129
-0.09372591 -0.05619675 -0.04167744 0.0049133566 -0.02586766 0.060227644 -0.0049336636 -0.014840097
-0.009415419 -0.027271627 0.0026725791 0.11368173 -0.005512118 0.012328496 0.06921517 -0.055985395
-0.04784631 -0.053211782 0.049109492 0.016507864 0.074915715 0.15053372 0.052560907 0.04026976
-0.04482109 -0.0043957466 0.0033779487 0.06861864 0.014912265 0.09823692 0.04780498 0.013527909
-0.046266366 -0.031412397 0.05433807 -0.022399556 0.067445 0.046373658 0.00596583 -0.003675954
0.022730457 0.03726311 -0.09018526 -0.008042165 0.12150653 0.00071105576 -0.022993516 -0.0004076134
-0.09771821 -0.085928455 -0.0024771234 0.06922525 0.053760488 -0.029171394 0.029907174 0.012876646
-0.067002326 0.07104625 -0.02898727 -0.018898858 0.0027264094 0.018741459 -0.013624166 0.007845547
-0.11354403 -0.034199875 -0.10335556 0.06159757 0.02262241 0.14665897 -0.035185356 0.044409856
-0.044309635 -0.004498076 0.13264492 0.012128581 0.12576474 0.1283613 -0.046147313 -0.06866877
-0.020987464 0.10012743 -0.022322124 -0.0069184466 -0.019819362 0.0057918257 0.05927273 -0.0008623977
0.05253173 -0.053026296 0.070884034 0.058400445 -0.024481235 0.042966593 0.030605795 -0.09787991
0.082688026 -0.052944824 -0.043925352 0.04395661 -0.057961933 -0.010968495 0.036729358 0.08530561
0.08383949 -0.067838654 0.14765309 0.049282905 -0.0020913198 0.03768379 0.009376373 0.018799437
-0.078502856 -0.01696654 -0.10620471 0.16709635 -0.05640744 -0.11063581 0.10716897 -0.06011582
-0.0046780035 -0.064314336 0.08050587 0.052949987 -0.03144969 0.028771156 0.04424701 -0.00010116076
0.12791617 0.150876 0.0082076555 0.001976725 0.09120305 0.054964524 0.005978317 0.035126712
-0.056740258 0.04518683 0.053558156 0.042856492 0.042977747 0.05082554 -0.007910291 0.11985238
-0.06044355 0.033727355 0.01722697 0.07136235 0.03433348 -0.06306054 -0.10092535 0.0024967934
0.06548158 -0.020935096 -0.1095169 -0.052227434 -0.075920634 -0.08269184 0.0230375 0.00054024585
-0.0044643423 -0.019881692 -0.01936861 0.0531388 0.058646653 0.015424084 -0.019908516 -0.07088494
0.18023331 0.032063045 0.03369795 0.002503007 -0.0745156 -0.0614501 0.10183225 0.027782174
0.08003668 0.055728443 -0.009289345 -0.03517727 0.04484135 -0.040069208 -0.020284986 -0.07921341
-0.08387216 0.010958366 -0.0029381232 0.108173065 -0.05105836 0.019501787 -0.02452709 0.1828583
0.017267045 -0.038130913 0.0073991194 0.030643407 -0.031515922 -0.03364875 -0.07489371 0.030893411
0.00060632674 0.028365446 0.1333136 -0.035876136 -0.022024533 -0.04242525 -0.03207531 0.028687391

4.weight f4 [4, 256]
00000000: bd8a 333e 952b 413e 4c84 afbe 4b6f 513e
00000010: bcbb 023e eb7e 5d3e afc8 443e af65 263e
00000020: 4e81 843e 11fa 94be 30ba 3e3e 869a 533e
00000030: 0c16 643e 2cee 383e 3a05 7d3e e1c6 1f3e
00000040: 979e 4d3e 7973 263e 1e78 3bbc 97cc 523e
00000050: f6ef c53d 7af5 c53d dd86 f03d a097 163e
00000060: 0494 6b3e 027c 113d 922a 8cbe 34db 223e
00000070: 9b6c 023d 8b45 453e 61d8 493d a2d5 b0be
00000080: 002e 623e 39e9 3a3e 2b11 6d3e 98a0 0b3e
00000090: 0f90 01bf e1ab 89be 22b4 903d 2b38 273e
000000a0: 8c2c 283e be95 cfbe a707 513e 5e2f 343e
000000b0: f6a8 423e af5c 743e d301 083e ca1e 2e3d
000000c0: 76d4 5f3e f8fc 2c3e bc31 4f3e 8eca 813e
000000d0: 0426 393e 2d0d eebd d070 663e 701e 833e
000000e0: 8a0d 433e 779a 643e 450c 6e3e 7dab 98be
000000f0: bda0 0ebf 203e 683e fd2b 1ebe f449 1f3e
00000100: 29d2 97bc 8808 5f3e e2dd 3d3e 321c 853e
00000110: 2b3d 8cbe 9bd8 08bf 198d 94be 3c14 84be
00000120: 91d9 123e c515 67bd 87f2 1cbf 97b1 00bf
00000130: 911f 5d3e c539 7cbe ec2e ed3d 7246 06bf
00000140: 5dd3 463f b263 f1be de98 20bd a438 9a3d
00000150: ac69 9e3d 0a39 453e b6ce 0d3d d4e2 3abe
00000160: 37e2 113e 03b1 92be 4e72 9b3e 457e 3ebe
00000170: e3e3 6fbe 4f52 fd3d 1bf6 313e 155a 153e
00000180: dab2 273e 5c8f 6f3e 81cd 8dbe 65bc 953d
00000190: 0465 923d 758c 843e 8577 633e 3312 0a3e
000001a0: 04c0 bd3d 6fb9 28bf 1ec9 94be f421 313e
000001b0: a12c 223e 1182 683e 2b7f 713e d9b2 a03d
000001c0: 0add 963e 76b1 37bd 94fc 3b3f 2955 4d3e
000001d0: a95e c33d 7b88 eabe e01a 353e c69d 9fbe
000001e0: bfaa 8f3e 7857 393e 6903 b8be a694 f33d
000001f0: 5517 93be e731 b6be 7c8a e23e a4fe 923f
00000200: c7a0 8e3e 3d6a bdbe 7865 8a3f 3e92 723f
00000210: 558a 233e 9ebc b1bc 9eb8 85be fe1f 4b3e
00000220: b6dc 483e 89a8 febe 9c18 acbe 15e8 c4be
00000230: fbec f1be ca4d 683e 3cbe 173d 9288 613e
00000240: 9877 29bf 7b5c 5a3e bbe9 603e be31 3a3e
00000250: 9fe5 473e ce63 bb3e c030 2bbf 7b04 a7be
00000260: 218c c63c 9cdf 793e 4eca ecbe 65be 03bf
00000270: 434f 16bd f2bb 023f 5933 643e 07d2 2e3e
00000280: f2e8 6a3e 7473 2e3e 9d02 473f 2a3d ecbe
00000290: b5ea 073e 9dd4 8a3f b7a2 c3be 9408 303d
000002a0: 6460 503e fd30 7e3e 8bef 31bf 7145 073e
000002b0: 9eab 633e b385 143e 13b2 9cbe 685a e53d
000002c0: 3bab 80be 1571 10bf 086b 98be f4b0 303e
000002d0: 38b1 d3be 0f5e 043e e5f8 5d3e 4a47 403e
000002e0: 1cc8 3fbe 1a9c a7be 25bb dabe eb4f a8be
000002f0: 3ced 573e 62b3 e73d 61b6 553e 8072 e3be
00000300: 079a 053e 82c4 3d3e 2b40 9bbc 9727 e6be
00000310: 6e25 573e ee0d 383e 010c 9a3e cb99 5d3e
00000320: a4d5 1dbf 5b70 1bbf 25fd e23e 7973 6b3e
00000330: 4367 f53d 919f 273e 1bab c03d fc48 3b3e
00000340: a785 313e 6e56 2b3e 07b8 7dbe 0f5b 143f
00000350: a975 abbe c19e a7bd 5c6c 003e 19da 6b3e
00000360: b35b 13bf 690e 203e 13c3 2b3e d2e1 553e
00000370: c3f4 e93e 54b5 49bd 335d bbbe 09be 5a3e
00000380: 5a0b 11bf 9025 0cbf c704 123e cf40 1a3e
00000390: 7d97 2c3e c581 683e b3ea e33d 6ace 3a3e
000003a0: a547 843e 2e79 873e dca2 c73d 7703 08bf
000003b0: 8f16 4ebf 4c98 653e c4ac 133d 5482 d5be
000003c0: c2d2 303e 3eaa 503e 77a6 653e 66ae 493e
000003d0: 689c 5b3e e7d6 fd3d 0b7e 3e3e c770 013e
000003e0: f7a5 3dbe 5341 623c 0ab3 87be 4306 623e
000003f0: 113c e83d 8340 a03f 3bf5 a33e 1885 e73d
0.17533393 0.18864281 -0.34280622 0.20452611 0.12766927 0.21630447 0.1921718 0.16249727
0.25879902 -0.29097036 0.18625712 0.20664415 0.22274035 0.18059605 0.24709025 0.1560321
0.20080028 0.16254987 -0.011442212 0.20585857 0.096649095 0.096659616 0.11744473 0.14706278
0.23005682 0.035518654 -0.2737623 0.15903932 0.031841855 0.1926481 0.04927862 -0.3453799
0.2208786 0.1825303 0.2315108 0.1363548 -0.5061044 -0.26888946 0.070656076 0.1633002
0.16423243 -0.40543932 0.20413075 0.17596194 0.19009766 0.23863481 0.13281946 0.04250983
0.21858391 0.16893375 0.20233816 0.2534985 0.18080908 -0.11623607 0.22503972 0.2560916
0.19048133 0.22324549 0.23246868 -0.29818335 -0.5571402 0.22679949 -0.15446468 0.15555555
-0.01853283 0.21780598 0.18541673 0.25998074 -0.27390417 -0.53455514 -0.290139 -0.25796688
0.14340807 -0.056417245 -0.6130757 -0.5027098 0.21594073 -0.24631412 0.11581215 -0.5245124
0.77666265 -0.47146374 -0.039208286 0.075303346 0.07734999 0.1926004 0.034620963 -0.1825059
0.1424645 -0.28650674 0.30360645 -0.18602856 -0.23426776 0.12369215 0.17379038 0.14585145
0.1637682 0.23394531 -0.2769585 0.07311324 0.071481735 0.2588841 0.22213562 0.13483505
0.0926514 -0.6590795 -0.2905969 0.17298108 0.15837337 0.22705866 0.23583667 0.078466125
0.29465514 -0.044846974 0.7343228 0.20052017 0.09539539 -0.4580725 0.17686033 -0.3117506
0.28059956 0.18099773 -0.35940102 0.11893587 -0.28728738 -0.35584947 0.4424628 1.148396
0.27857038 -0.36995116 1.0812216 0.947544 0.15970738 -0.021696385 -0.26117414 0.19836423
0.19615445 -0.49737957 -0.33612525 -0.38458315 -0.47251114 0.22685924 0.037046656 0.22024754
-0.6619811 0.21324341 0.21964161 0.18183038 0.19521187 0.36599582 -0.6687126 -0.32620606
0.02423674 0.24401706 -0.46248096 -0.51462394 -0.036696684 0.5106803 0.22285213 0.17072307
0.22940424 0.1703623 0.7773836 -0.46140414 0.13273127 1.0846134 -0.3821008 0.04297693
0.2034927 0.24823375 -0.6950614 0.13210084 0.22233436 0.14504127 -0.3060461 0.11198884
-0.25130638 -0.5642255 -0.29769158 0.17255002 -0.41346145 0.12926506 0.21676977 0.18777195
-0.1872868 -0.32736284 -0.42720905 -0.32873473 0.21086591 0.113135114 0.20870353 -0.44423294
0.13047038 0.18531993 -0.018951496 -0.4495208 0.21010372 0.17974064 0.30087283 0.21640699
-0.61654115 -0.60718316 0.4433376 0.22993268 0.11982586 0.16369464 0.09407636 0.1828956
0.1733614 0.16732189 -0.24777232 0.57951444 -0.33488205 -0.08184577 0.12541336 0.23032416
-0.57561797 0.15630497 0.16773634 0.20886925 0.4569455 -0.049245194 -0.36594543 0.21361555
-0.56657946 -0.54744816 0.14259635 0.15063785 0.16854663 0.22705753 0.1112875 0.18242803
0.2583591 0.2645964 0.0974786 -0.53130287 -0.8050317 0.22421378 0.036053434 -0.41700995
0.17267898 0.20377442 0.22426783 0.19695434 0.21446383 0.12394505 0.18602769 0.12640677
-0.18520342 0.01380952 -0.26503783 0.22072701 0.11339582 1.2519687 0.32023033 0.113046825

4.bias f4 [4]
00000000: 8d5a 203d a497 04bd abbe 773d 7d45 c03c
0.039148856 -0.03237118 0.06048457 0.023470635
