Eksempel på outout fra HPC/Gus1_Agents/agent_OneHot_NN2_128_0_1000_2025-01-22_19-12-32/balls_q_net.pt (torch, 76504 bytes, 6 tensors)

0.weight f4 [128, 11]
0	0x3dd54487	0.10413461
1	0xbe438e8f	-0.1909735
2	0x3eece181	0.46265796
3	0xbcae7adc	-0.021298818
4	0xbd2af830	-0.041740596
5	0x3ef5952c	0.47965372
6	0x3c4e6c19	0.012599015
7	0x3d840848	0.06446892
8	0x3ca4607d	0.02006554
9	0xbeb88927	-0.3604214
10	0x3d5e3220	0.05424702
11	0xbda9ed89	-0.08297259
12	0x3ebb6225	0.36598316
13	0xbdaa487e	-0.08314608
14	0x3e7ce16a	0.24695364
15	0xbe70636e	-0.2347543
16	0x3ec9e1cf	0.3943009
17	0xbdcd4e7f	-0.100247376
18	0x3ec4e37c	0.38454807
19	0xbe0e03fa	-0.13868704
20	0x3e3e0fda	0.18560734
21	0xbe8c1714	-0.27361357
22	0xbea7130c	-0.3263172
23	0xbe877372	-0.26455265
24	0x3ebd45eb	0.36967406
25	0x3e531ec0	0.20617199
26	0xbd878a3d	-0.06618164
27	0xbe3da9fe	-0.18521878
28	0x3ea1b446	0.3158285
29	0x3eaa57d2	0.33270127
30	0xbe5db20b	-0.21649949
31	0x3e0d57a3	0.13802962
32	0xbe24338a	-0.16035286
33	0xbc013741	-0.007886709
34	0x3e844e08	0.25840783
35	0x3ef85d6d	0.48508778
36	0xbd3cb844	-0.046074167
37	0x3e4f2d3b	0.20232098
38	0x3e0c2c86	0.1368886
39	0x3e745895	0.23861916
40	0xbd8311c9	-0.063998766
41	0xbe82029f	-0.25392625
42	0xbd046b87	-0.03232911
43	0x3edd9e71	0.43284944
44	0x3e08aa1f	0.13346146
45	0xbd94328a	-0.07236202
46	0x3dac3e3b	0.08410307
47	0x3c6c039b	0.0144051565
48	0x3d840680	0.06446552
49	0x3ce9ad27	0.028524948
50	0x3e5b71d9	0.21430148
51	0x3e7a936b	0.24470298
52	0x3ed4835c	0.4150647
53	0x3e34d4af	0.17659257
54	0x3e8ee437	0.2790849
55	0xbe4cc6fa	-0.19997779
56	0x3e1446df	0.1448016
57	0x3e658feb	0.22418182
58	0x3e86b885	0.26312652
59	0xbeac7e21	-0.3368998
60	0xbef9befb	-0.4877852
61	0x3d3ac6a3	0.04559959
62	0x3ebf12ae	0.3731894
63	0x3ee4e966	0.4470932
64	0xbeb00d5d	-0.34385195
65	0xbe4e9c42	-0.20176795
66	0xbe6cfafa	-0.23142615
67	0x3dde22f2	0.10846509
68	0xbe03331a	-0.12812462
69	0xbe4dfaa2	-0.2011514
70	0xbdb61586	-0.08890824
71	0xbdc78fa6	-0.09744196
72	0x3e66b5c2	0.22530273
73	0xbdddf2fc	-0.10837361
74	0x3e83e03d	0.25757018
75	0xbe7f3d62	-0.2492576
76	0xbe9402ee	-0.28908485
77	0x3e53184e	0.2061474
78	0xbeb5e57c	-0.35526645
79	0x3d1b921f	0.03798115
80	0x3e7ba2c7	0.24573813
81	0x3e67f51c	0.22652096
82	0xbe766aad	-0.24064131
83	0x3eb64dcf	0.35606238
84	0xbe0d11c1	-0.13776304
85	0x3f087d58	0.5331626
86	0x3dc6931b	0.09696027
87	0x3d27e6c9	0.04099158
88	0xbe2f116c	-0.1709649
89	0x3e9bf690	0.3046155
90	0xbe99d39b	-0.30044255
91	0xbf000ab7	-0.5001635
92	0xbf0443f5	-0.51666194
93	0xbed2b0cf	-0.4115052
94	0xbec8edb1	-0.39243844
95	0xbe754394	-0.2395156
96	0x3e84db1f	0.25948426
97	0x3eb6f2c4	0.3573209
98	0x3da18b10	0.07887852
99	0xbdec308b	-0.11532696
100	0xbe09fe61	-0.13475944
101	0x3e999f53	0.30004367
102	0x3e941636	0.28923196
103	0x3e2a772d	0.16647024
104	0x3dc6eb00	0.097127914
105	0x3ec22713	0.37920436
106	0x3e9a0731	0.30083612
107	0x3ef8501a	0.48498613
108	0x3ee1cbd3	0.44100818
109	0x3e903a2e	0.28169388
110	0x3ed0b337	0.4076173
111	0x3ea571b1	0.32313302
112	0xbd65d8ba	-0.05611489
113	0xbea376fe	-0.3192672
114	0xbe9f222c	-0.3108076
115	0xbe5a3d01	-0.21312334
116	0xbd5757b1	-0.052573863
117	0xbeb25928	-0.34833646
118	0x3edf081b	0.4356087
119	0x3f14ea24	0.5816977
120	0xbe455521	-0.19270755
121	0xbe8350e0	-0.2564764
122	0x3eb3adbb	0.35093483
123	0xbedd8c98	-0.43271327
124	0xbed874fd	-0.42276755
125	0x3ebadffc	0.36499012
126	0xbe83ab06	-0.25716418
127	0xbcfc6cf6	-0.030813675
128	0x3ec323d8	0.38113284
129	0x3eb63f11	0.3559499
130	0x3e0d5962	0.13803628
131	0x3dbac4f4	0.09119597
132	0xbe5a3dd9	-0.21312656
133	0xbc1a46be	-0.00941628
134	0x3eb22d9f	0.3480043
135	0x3ea0eadc	0.31429183
136	0x3e2b8d27	0.16753064
137	0x3df5cfbf	0.12002515
138	0x3ee77dfb	0.45213303
139	0x3edfc8c3	0.43707857
140	0xbdd60aaa	-0.10451253
141	0x3e8ae60f	0.27128646
142	0x3ed5299f	0.41633317
143	0xbf058ff8	-0.52172804
144	0xbe5796a7	-0.21053563
145	0xbe1dc57b	-0.15407364
146	0xbc9d1319	-0.019174146
147	0x3eaadbf7	0.33370945
148	0x3e853789	0.26018932
149	0x3e7705bd	0.24123283
150	0xbd696a0c	-0.0569859
151	0x3ccf78c0	0.025326133
152	0xbf14ce2d	-0.581271
153	0x3e346445	0.17616375
154	0xbef6c934	-0.4820038
155	0xbeba12aa	-0.36342365
156	0xbef6cc3d	-0.48202696
157	0x3e931cdd	0.28732958
158	0x3ea127b3	0.314756
159	0x3eb14682	0.34624106
160	0xbd56ea3b	-0.052469473
161	0xbd8e75ee	-0.06956087
162	0xbed33cac	-0.41257226
163	0xbed20088	-0.4101603
164	0x3d720194	0.059083536
165	0x3e2903f9	0.16505422
166	0xbe86e1d9	-0.26344183
167	0x3dba0ece	0.09084855
168	0xbd41c688	-0.047308475
169	0x3ddd5acc	0.10808334
170	0xbd88329f	-0.0665028
171	0xbdb0ffce	-0.08642541
172	0xbe170e6c	-0.14751595
173	0xbe97067e	-0.2949714
174	0x3dd5c41a	0.10437794
175	0xbe7aaee4	-0.24480778
176	0x3df9f062	0.122040525
177	0x3bead579	0.007166561
178	0x3db83353	0.08994164
179	0xbc996db3	-0.018729066
180	0x3a4b5bab	0.0007757495
181	0x3e7b13bc	0.24519247
182	0xbd2d86b8	-0.042364806
183	0xbd77c49c	-0.060490236
184	0xbbd96bfc	-0.006635187
185	0xbd9d8d58	-0.07692975
186	0x3e9fe919	0.31232527
187	0xbe4e4fa6	-0.20147571
188	0x3e39dcb7	0.18150602
189	0x3e0b4190	0.13599229
190	0x3e12e811	0.14346339
191	0xbd4f2a6a	-0.05057756
192	0x3e6b77ca	0.22994915
193	0x3cba019d	0.022705847
194	0xbdb89970	-0.09013641
195	0x3e07b37f	0.13252066
196	0xbe90663c	-0.28203
197	0xbe70c93e	-0.23514268
198	0x3e8191f1	0.25306657
199	0x3e0cee9f	0.13762902
200	0x3ef38b01	0.4756699
201	0xbec3c86b	-0.38238844
202	0xbf1368c0	-0.5758171
203	0x3ef15d5e	0.47141546
204	0x3eb930a5	0.36169925
205	0xbeb6d132	-0.35706478
206	0xbd652b61	-0.055949572
207	0xbee8eaee	-0.45491737
208	0x3dac156e	0.08402525
209	0xbecc9519	-0.39957502
210	0xbe4a0148	-0.19727051
211	0xbe0b3006	-0.13592538
212	0x3e4bd54b	0.19905584
213	0xbcbcf8ee	-0.023067918
214	0x3ee13272	0.439838
215	0x3e932a2b	0.2874311
216	0xbddee277	-0.108830385
217	0x3e94691a	0.28986436
218	0xbe40b9dc	-0.188209
219	0xbded4374	-0.11585131
220	0xbe91fec2	-0.28514677
221	0xbdb46b16	-0.088094875
222	0x3db764e9	0.08954794
223	0xbe20f115	-0.15716965
224	0xbed5c0b4	-0.41748583
225	0xbe7be960	-0.24600744
226	0xbe0bf722	-0.13668492
227	0xbe815ab2	-0.25264508
228	0x3ee8eda9	0.4549382
229	0xbd72a67f	-0.059240814
230	0xbe129b7a	-0.14317122
231	0x3ef75f7e	0.48315042
232	0x3ee7bab6	0.45259637
233	0x3e7ed6ba	0.24886599
234	0xbe84e861	-0.2595854
235	0xbe29baa6	-0.16575107
236	0xbe803c0e	-0.25045818
237	0xbdd9c4d6	-0.106332466
238	0xbed205c6	-0.4102003
239	0x3d9f3ac9	0.07774884
240	0x3ee9c40e	0.4565739
241	0xbe236ff0	-0.1596067
242	0x3e9069b0	0.28205633
243	0xbe224bc7	-0.1584922
244	0x3e6906f7	0.22756563
245	0x3e0cf948	0.13766968
246	0x3d578167	0.052613642
247	0x3e9b788c	0.30365407
248	0x3eef9f48	0.4680121
249	0xbecc5cbe	-0.39914507
250	0x3e148390	0.14503312
251	0xbc738745	-0.014863794
252	0x3e136301	0.14393236
253	0xbdbf4a69	-0.093403645
254	0x3e660247	0.22461806
255	0x3d96a5c8	0.07355839

0.bias f4 [128]
0	0xbd10241a	-0.03519068
1	0x3dd768c1	0.10518027
2	0x3e5dc16c	0.21655816
3	0x3ebed904	0.37274945
4	0x3efc29d4	0.49250662
5	0x3ed5a402	0.4172669
6	0xbe378999	-0.17923583
7	0x3eb3c03d	0.35107604
8	0x393a4740	0.00017764885
9	0x3ecf29a1	0.40461448
10	0xbdb091f1	-0.08621586
11	0xbdea47fe	-0.11439513
12	0x3ea1241a	0.31472856
13	0x3d0880b6	0.033325873
14	0x3d02b5b9	0.031911585
15	0xbdf9bdb1	-0.12194384
16	0x3eff95d8	0.4991901
17	0xbe8c8f27	-0.27452967
18	0x3bb55b15	0.0055345395
19	0x3dd05ffd	0.10174558
20	0x3d0d4d2f	0.034497436
21	0xbe14c1c6	-0.14527044
22	0x3e596694	0.21230537
23	0x3f1c2edd	0.6100901
24	0x3e04499d	0.12918706
25	0xbe8242a9	-0.25441483
26	0x3d8a4dbd	0.06753109
27	0x3dd80c7c	0.10549256
28	0x3e3466d4	0.17617351
29	0x3e5519d8	0.2081064
30	0x3ea663fc	0.32498157
31	0x3e6ba8a9	0.23013557
32	0x3df585f2	0.11988439
33	0x3c9f864d	0.01947322
34	0x3e7cf9bf	0.24704646
35	0x3ee3a242	0.4445973
36	0x3eb397cb	0.35076746
37	0x3e815873	0.25262794
38	0x3d80b895	0.06285206
39	0x3ba33df7	0.004981752
40	0xbcf0a381	-0.02937484
41	0x3d5c5127	0.05378833
42	0xbeaba84a	-0.33526832
43	0xbd68db6f	-0.056849893
44	0x3ee99d74	0.4562794
45	0x3d9ac8db	0.075578414
46	0xbe2e714f	-0.17035411
47	0x3edeca04	0.435135
48	0x3dd26921	0.10273958
49	0x3e5f2a2b	0.2179343
50	0xbe24cb64	-0.16093212
51	0x3e8ae542	0.27128035
52	0x3f15bb39	0.58488804
53	0x3ed6d44e	0.4195885
54	0x3f153cf4	0.5829613
55	0x3f0e7cb9	0.5565906
56	0x3e1347bc	0.14382833
57	0x3dc5579f	0.09635853
58	0xbd812a36	-0.06306879
59	0x3eacc8a2	0.3374682
60	0x3ed3fea6	0.4140522
61	0x3e98d380	0.29848862
62	0x3ebae33c	0.3650149
63	0xbe55fba2	-0.20896772
64	0x3f241be8	0.6410508
65	0x3e879956	0.26484174
66	0x3de23812	0.11045851
67	0xbd8ef896	-0.06981008
68	0x3e06aab9	0.13151063
69	0x3ecced09	0.40024593
70	0xbe534aee	-0.20634052
71	0x3e378b8c	0.17924327
72	0xbe0f4245	-0.13990124
73	0xbe2f5b35	-0.17124636
74	0x3e7da782	0.2477093
75	0x3e495147	0.19659911
76	0x3ea43cc9	0.32077625
77	0x3e266309	0.16248716
78	0x3eace53d	0.33768645
79	0xbddc84c2	-0.10767509
80	0x3eef7429	0.4676831
81	0xbcefff9d	-0.02929669
82	0x3f13bc4c	0.57709193
83	0x3edaa7be	0.42706102
84	0x3d678b2a	0.0565292
85	0x3ecdf082	0.40222555
86	0xbde03665	-0.10947875
87	0x3e0e5b0f	0.13901924
88	0x3e469df9	0.193962
89	0x3f280e3d	0.65646726
90	0x3e2aea12	0.16690853
91	0x3eaa21b9	0.33228853
92	0xbd7abeae	-0.061217003
93	0x3da929f2	0.082599536
94	0x3e5e62c1	0.21717359
95	0x3ecace3b	0.39610466
96	0x3e047110	0.12933755
97	0xbe6146a6	-0.21999606
98	0xbe7cb760	-0.24679327
99	0x3f0df270	0.55448055
100	0xbd0edd3f	-0.034878965
101	0x3eb868c3	0.36017427
102	0x3f207bd7	0.62688965
103	0xbc1328dd	-0.0089819105
104	0x3e0729bd	0.13199516
105	0x3f069cc4	0.52582955
106	0x3e1a7ec3	0.15087418
107	0x3ed71cb0	0.42014074
108	0xbe31fd54	-0.17381793
109	0x3ea15e73	0.31517372
110	0xbd93e731	-0.07221831
111	0x3f1a1b85	0.6019824
112	0x3f0c8b63	0.5490019
113	0xbe383154	-0.17987567
114	0x3e94ba67	0.29048464
115	0xbdd1254d	-0.10212193
116	0x3f1e9515	0.6194623
117	0x3e22ff38	0.1591767
118	0xbc0c6337	-0.008568577
119	0xbda49a38	-0.080372274
120	0x3e50c54a	0.2038776
121	0x3f011d3f	0.5043525
122	0x3ec0607d	0.37573615
123	0x3ee8b7e4	0.45452797
124	0xbddab27e	-0.10678576
125	0x3f0c95c6	0.54916036
126	0x3eac4fbe	0.33654588
127	0x3e9e81aa	0.309583

2.weight f4 [128, 128]
0	0x3e313934	0.17306978
1	0x3cac4bb8	0.0210322
2	0x3d82d755	0.063887276
3	0x3e00aa00	0.1256485
4	0x3e52892f	0.20560144
5	0x3eb4e99a	0.35334474
6	0xbcd3b96f	-0.025845258
7	0x3c8ef457	0.017450495
8	0xbec4f90e	-0.38471264
9	0x3e2ad6ae	0.16683456
10	0x3d5812cf	0.052752312
11	0x3d105019	0.035232637
12	0x3e8b497a	0.27204496
13	0xbcb482fb	-0.022035113
14	0xbe6440f0	-0.22290397
15	0x3d415193	0.047196936
16	0x3dedb12f	0.11606061
17	0xbd31c069	-0.043396387
18	0xbd612e72	-0.054975934
19	0x3de23534	0.11045304
20	0xbe098489	-0.13429464
21	0xbd9f5fde	-0.07781957
22	0x3d031042	0.031997927
23	0x3e936568	0.28788304
24	0xbe85dc5a	-0.26144677
25	0xbed53292	-0.41640145
26	0x3e8a834b	0.27053294
27	0xbdbff2c3	-0.09372475
28	0x3ec7a801	0.38995364
29	0xbd872185	-0.0659819
30	0x3e47a2d7	0.19495712
31	0x3e58da85	0.21177109
32	0xbd8cfd48	-0.06884247
33	0xbe1bb08c	-0.15204066
34	0x3ec62ca0	0.3870592
35	0x3e8ae776	0.27129716
36	0xbdee9d06	-0.116510436
37	0x3e9af225	0.30262867
38	0xbbf514d5	-0.00747929
39	0x3e3a9c5d	0.1822371
40	0x3c83ed42	0.016104344
41	0x3ec7806f	0.38965175
42	0xbe387dc5	-0.18016727
43	0x3e71fed9	0.23632373
44	0x3deaf7ce	0.11473046
45	0x3deecdf5	0.11660377
46	0x3ccd50b6	0.0250629
47	0x3ddf0078	0.10888761
48	0xbcc22858	-0.023700878
49	0x3e419103	0.18902974
50	0xbeb69ab0	-0.35664892
51	0x3e594d16	0.21220812
52	0x3e5b693d	0.21426864
53	0x3e63b46b	0.22236793
54	0x3dc7a49a	0.09748192
55	0x3ea7bc94	0.3276106
56	0x3e9202cd	0.28517762
57	0x3e136e00	0.1439743
58	0xbd1120f5	-0.03543182
59	0x3e336219	0.1751789
60	0x3d8f84a3	0.0700772
61	0x3e45f688	0.19332325
62	0x3e17916e	0.14801571
63	0xbe93f83d	-0.28900328
64	0x3e95998a	0.29218704
65	0x3df327d0	0.11872828
66	0x3edcf5bc	0.4315623
67	0xbd0992d3	-0.033587288
68	0xbea111d8	-0.31458926
69	0x3e667e48	0.2250911
70	0xbeb77c22	-0.35836893
71	0x3e93b84b	0.28851542
72	0xbd73d30e	-0.05952745
73	0x3e4fee53	0.20305757
74	0x3d8ea25e	0.06964563
75	0xbd3496f9	-0.04408929
76	0x3e29f0a9	0.16595711
77	0xbe876981	-0.2644768
78	0x3da6f668	0.08152467
79	0xbe7dbd00	-0.24779129
80	0x3e5951c5	0.21222599
81	0x3c3d6a3b	0.011560972
82	0x3e09b723	0.13448767
83	0x3de1cb88	0.11025149
84	0x3cb31c66	0.021864127
85	0x3d5a9408	0.05336383
86	0x3d88de5b	0.06683036
87	0x3e9c8dc5	0.30576912
88	0x3e398b46	0.18119535
89	0x3e532de4	0.20622975
90	0x3e27c261	0.16382743
91	0x3e04cbb8	0.12968338
92	0xbe5b2b5c	-0.21403259
93	0xbd9b4ae4	-0.07582644
94	0x3e548716	0.20754656
95	0x3d3adc37	0.04562017
96	0x3b89f0ae	0.0042095995
97	0xbebc4af6	-0.3677594
98	0xbd905e27	-0.07049208
99	0x3e446cd0	0.19182134
100	0x3e56efdc	0.20989937
101	0x3e3e84a2	0.18605283
102	0x3e64a7be	0.22329614
103	0x3d6e2e4f	0.058149632
104	0xbd9f6a1d	-0.077839114
105	0x3dfef104	0.12448314
106	0x3e72f672	0.23726824
107	0x3c20edc6	0.009822315
108	0xbda0cf22	-0.078520074
109	0x3e014390	0.1262343
110	0x3e923b68	0.28560948
111	0x3e2c1bf5	0.1680754
112	0x3e5dd30f	0.21662544
113	0xbd56783d	-0.052360762
114	0x3d99fe1f	0.07519173
115	0xbd58da0f	-0.052942332
116	0x3e658f98	0.22418058
117	0x3d52d768	0.05147496
118	0x3e2ec463	0.17067103
119	0x3dbb59b7	0.09147971
120	0xbdc12dfd	-0.094326
121	0x3e169767	0.14706193
122	0x3eb627f9	0.35577372
123	0x3de9269c	0.11384317
124	0x3d80487e	0.06263827
125	0x3dec4e7b	0.115384065
126	0xbd361498	-0.044453233
127	0x3e1e8ca3	0.15483336
128	0x3d3731c6	0.044725202
129	0x3da2d1dd	0.079501845
130	0xbd6c0a9b	-0.0576273
131	0xbbc269e7	-0.0059330347
132	0xbd58845d	-0.052860606
133	0xbc6beaf8	-0.014399283
134	0xbc11edb0	-0.008906767
135	0x3c14d432	0.009083794
136	0x3d903a5c	0.07042381
137	0xbd705d69	-0.058682833
138	0x3d767a2d	0.06017511
139	0xbd03bd84	-0.032163158
140	0x3daf9b83	0.085745834
141	0xbd698b12	-0.057017393
142	0x3d9798d5	0.07402197
143	0xbb5eb605	-0.0033983004
144	0xbcd093d2	-0.025461111
145	0x3b8b7879	0.004256305
146	0xbc800589	-0.01562764
147	0x3c2c9bfc	0.010535236
148	0xbd9f3968	-0.07774621
149	0xbd02c434	-0.031925395
150	0xbd8a5558	-0.06754559
151	0xbc7be8ba	-0.015375311
152	0x3d14f2be	0.03636431
153	0x3d546bb0	0.05186051
154	0xbd95e2d1	-0.073186524
155	0x3d60fe5b	0.054930072
156	0x3d0109a7	0.031503346
157	0x3d39293c	0.04520534
158	0xbcbfff5b	-0.023437193
159	0x3cae6401	0.02128792
160	0xbb6f82d2	-0.003654648
161	0x3c95f1ef	0.01830384
162	0xbcf72acf	-0.03017178
163	0x3d1be64c	0.038061425
164	0xbd578dce	-0.05262547
165	0xbd6b87fc	-0.05750273
166	0xbc7b1e59	-0.01532706
167	0xbd9f627e	-0.07782458
168	0xbd134d2a	-0.03596226
169	0xbcc054d7	-0.023477955
170	0x3d80caba	0.06288667
171	0xbc0a55e5	-0.00844333
172	0x3c1c940b	0.009556781
173	0xbc98db44	-0.018659241
174	0x3d24036a	0.04004232
175	0x3bfcda0e	0.007716424
176	0x3d85a1a6	0.065249726
177	0xbd446f88	-0.047957927
178	0x3ca8f39f	0.02062398
179	0x3c8dcf98	0.017310902
180	0x3d92bb84	0.07164672
181	0x3d843559	0.06455488
182	0x3d7a4c1c	0.06110774
183	0x3ce40d71	0.02783844
184	0x3b406ffb	0.002936362
185	0x3d50199d	0.050805677
186	0xbd94c899	-0.072648235
187	0xbce7443d	-0.02823078
188	0x3db02cd0	0.08602297
189	0x3d479d22	0.048733838
190	0x3d63743a	0.055530764
191	0xbce1652c	-0.027514063
192	0xbc2c83f9	-0.010529512
193	0x3d2b4cd7	0.041821327
194	0x3c574de9	0.013141134
195	0xbc36b59c	-0.0111516975
196	0x3d02be56	0.0319198
197	0x3b7a8794	0.0038227784
198	0x3d1f0976	0.038827382
199	0xbd2e0f84	-0.042495266
200	0xbd416b5f	-0.047221538
201	0xbd6e5392	-0.058185168
202	0xbd437f86	-0.047729038
203	0xbc062ece	-0.00818987
204	0xbd1f6003	-0.038909923
205	0xbda9b5d7	-0.08286636
206	0xbd834c34	-0.06411019
207	0xbd596f94	-0.053084925
208	0x3d6fcf9a	0.058547594
209	0xbc35b8a7	-0.011091388
210	0xbd0dd051	-0.034622494
211	0xbd752094	-0.059845522
212	0xbd81fef7	-0.06347459
213	0x3c17e79a	0.009271527
214	0xbc9363cb	-0.017991921
215	0x3d9bca1f	0.07606911
216	0xbdac69de	-0.0841863
217	0xbdafe86e	-0.08589254
218	0x3cf17379	0.029474007
219	0x3b3d7d62	0.0028913845
220	0x3c8f8446	0.017519128
221	0x3d920f94	0.071318775
222	0xbdb2bcd3	-0.087274216
223	0xbd4cda97	-0.05001315
224	0xbc157781	-0.00912273
225	0xbd3e03a2	-0.046390183
226	0x3d9d23c3	0.07672837
227	0xbd57cc35	-0.05268498
228	0xbd9e9e97	-0.07745092
229	0xbdac5699	-0.08414955
230	0x3d4bdadb	0.049769264
231	0xbbf0c707	-0.0073479447
232	0x3daa7bc9	0.083243914
233	0xbd8a39d2	-0.067493096
234	0x3d91db7b	0.07121941
235	0x3ca1985d	0.019725973
236	0xbc8700fe	-0.016479965
237	0xbd8bd560	-0.068278074
238	0xbd958b7c	-0.07301995
239	0xbd9f929c	-0.077916354
240	0xbd7e17db	-0.06203447
241	0x3d8e1450	0.06937468
242	0xbda60059	-0.08105535
243	0xbd0e6dce	-0.034772687
244	0xbd728333	-0.059207153
245	0xbd5d6ff1	-0.054061834
246	0xbd0c221a	-0.03421221
247	0xbd4d5249	-0.0501273
248	0x3d5a5b96	0.05331
249	0xbda15485	-0.07877449
250	0xbabaa5f1	-0.0014240128
251	0x3cb90d15	0.022589246
252	0x3d6ddb02	0.05807019
253	0x3d42a683	0.04752208
254	0x3d4f6985	0.05063774
255	0xbd35a463	-0.044346225

2.bias f4 [128]
0	0x3e85b55b	0.26114926
1	0xbd345e3e	-0.04403519
2	0xbd646f93	-0.055770468
3	0x3d3be66d	0.045874048
4	0xbba6a1ce	-0.0050852066
5	0x3c2b460f	0.010453715
6	0x3c94e89a	0.01817732
7	0x3de47d46	0.111567065
8	0x3e80df37	0.251703
9	0x3dab3c39	0.08361096
10	0xbda25d39	-0.07927937
11	0xbd5982a2	-0.053103097
12	0xbdb2f974	-0.08738986
13	0xbe09515e	-0.13409945
14	0x3db0fff8	0.08642572
15	0x3cfa7d0e	0.030577209
16	0x3ea4a120	0.3215418
17	0x3e8c6059	0.27417257
18	0xbdd73fa0	-0.105101824
19	0x3e0ffdc7	0.14061652
20	0xbd87c03d	-0.066284634
21	0xbcdfeffb	-0.027336111
22	0xbd523ad6	-0.05132564
23	0x3d4ab5bd	0.049489725
24	0x3e33f331	0.17573239
25	0x3e6b52f5	0.22980864
26	0x3c30015f	0.010742514
27	0x3c180d9e	0.00928059
28	0xbda7a529	-0.08185799
29	0x3e4ff026	0.20306453
30	0xbce3134b	-0.02771916
31	0x3cffba36	0.031216722
32	0x3ed555bb	0.4166697
33	0xbb6ba9ff	-0.003595948
34	0xbe0358b7	-0.12826811
35	0x3e346658	0.17617166
36	0x3e9a7ae9	0.30171898
37	0xbd1cd194	-0.038285807
38	0xbdae66e0	-0.085157156
39	0x3d8f8b45	0.070089854
40	0x3e844d1c	0.2584008
41	0xbe05dea9	-0.1307322
42	0xbd316edf	-0.043318626
43	0xbc808fde	-0.015693601
44	0x3e475037	0.19464193
45	0xbd37c5de	-0.044866435
46	0xbe19bbc1	-0.15013029
47	0x3e54c659	0.20778789
48	0x3e69e2fd	0.22840495
49	0x3ebaab33	0.3645874
50	0x3afd6fa8	0.0019335644
51	0x3e75dc3e	0.24009797
52	0xbdb3cd49	-0.087793894
53	0x3e2ec040	0.17065525
54	0xbdc0177b	-0.093794785
55	0x3e744975	0.23856147
56	0xbd03400c	-0.0320435
57	0xbd7af207	-0.06126597
58	0xbbca274a	-0.0061692344
59	0x3c676cb7	0.014125041
60	0xbd5253a7	-0.05134931
61	0xbdd27284	-0.10275748
62	0x3e9a7f72	0.30175358
63	0xbb92d8e8	-0.0044814236
64	0x3c928fb2	0.017890785
65	0x3e904b8d	0.2818264
66	0xbdafd02a	-0.08584626
67	0x3de3511d	0.110994555
68	0xbd93a930	-0.07210004
69	0xbd963e9c	-0.073361605
70	0xbdd550e8	-0.10415822
71	0xbd7542a6	-0.059878014
72	0xba9a5c45	-0.0011776766
73	0x3d326ac3	0.043558847
74	0x3cc22f3d	0.023704166
75	0x3e420594	0.1894744
76	0xbd221e21	-0.039579514
77	0x3c1bd160	0.009510368
78	0x3d7a9224	0.061174527
79	0x3d9f3d44	0.07775357
80	0xbdd16933	-0.10225143
81	0xbcc8cc51	-0.024511488
82	0x3bd2e4c4	0.0064359624
83	0xbe107c5d	-0.14109941
84	0x3e41ea17	0.18936954
85	0x3ca4dc8c	0.020124696
86	0xbd3a60fe	-0.045502655
87	0xbd92d50d	-0.071695425
88	0xbcf9f221	-0.030510964
89	0x3d22fe75	0.03979345
90	0x3e988c5a	0.2979458
91	0xbdc33876	-0.095322534
92	0x3ea0c03d	0.31396666
93	0xbe091575	-0.13387091
94	0x3dc3e9f4	0.095661074
95	0x3e7eeda2	0.24895337
96	0xbd165ec3	-0.036711466
97	0xbb0483c8	-0.002022015
98	0xbd857794	-0.06516948
99	0xbcc6df5f	-0.024276434
100	0xbcf699eb	-0.03010269
101	0x3c3c80fd	0.011505363
102	0x3e8bb560	0.27286816
103	0x3cc5fded	0.024168933
104	0x3e315aad	0.17319746
105	0x3d956a81	0.07295705
106	0x3ebd76b8	0.37004638
107	0xbd7286d5	-0.059210617
108	0xbaa0a586	-0.0012256361
109	0xbdb53c88	-0.08849436
110	0x3e82063a	0.25395375
111	0x3e95e12d	0.29273358
112	0x3b659f8e	0.003503773
113	0x3e627837	0.22116171
114	0x3dd04e7f	0.10171222
115	0xbca22f3b	-0.019797912
116	0xbd39f309	-0.045397792
117	0xbd6ef533	-0.05833931
118	0x3c53e9a1	0.012934119
119	0x3ca13e6e	0.01968309
120	0xbe0b7279	-0.13617887
121	0x3d9b4255	0.07581011
122	0x3cbca530	0.023027986
123	0x3cc769c0	0.024342418
124	0x3e547b9a	0.20750275
125	0x3e9ae8b8	0.30255675
126	0xbd2fbb4d	-0.042903233
127	0xbd1a7233	-0.037706565

4.weight f4 [3, 128]
0	0x3d972063	0.07379224
1	0x3db2ccb7	0.087304525
2	0xbe081c93	-0.1329215
3	0xbeaed9cd	-0.34150544
4	0x3c998a3c	0.018742673
5	0xbe635887	-0.22201739
6	0xbe81cd4c	-0.25351942
7	0x3ec1e83f	0.37872502
8	0x3e644b10	0.22294259
9	0x3d1e12cc	0.038592145
10	0x3b659060	0.003502868
11	0x3d2671ea	0.04063598
12	0x3d3b5962	0.04573954
13	0x3ed7b13b	0.42127404
14	0x3e2bc1f1	0.16773202
15	0x3d604569	0.054753695
16	0x3e931b68	0.28731847
17	0x3ed54391	0.41653112
18	0xbe6cf9a9	-0.23142113
19	0x3e990c32	0.29892117
20	0x3c9c7355	0.019097963
21	0x3e3c766d	0.18404551
22	0x3ea2269b	0.3167008
23	0x3c468455	0.012116511
24	0x3efea419	0.49734572
25	0x3e76da72	0.24106768
26	0xbe6cabb8	-0.2311238
27	0xbb8f0c35	-0.004365469
28	0x3dc0b20a	0.09408958
29	0x3ea335c8	0.3187697
30	0xbc1d700c	-0.009609234
31	0x3c2339aa	0.009962479
32	0x3e973a39	0.29536608
33	0x3b82c779	0.003991064
34	0xbdd6eb3b	-0.104940854
35	0x3ef903b7	0.48635647
36	0x3e941370	0.2892108
37	0x3d71cdb4	0.059034064
38	0xbe29bb99	-0.16575469
39	0xbd7d10e7	-0.061783697
40	0x3eae12b6	0.3399865
41	0x3e214142	0.1574755
42	0x3c888616	0.0166655
43	0xbe165e4f	-0.14684413
44	0x3c8ff48d	0.017572666
45	0xbca1e330	-0.019761652
46	0x3e26553a	0.16243449
47	0x3e3003c6	0.1718894
48	0x3eb9764a	0.3622306
49	0x3eeb2bf5	0.45931974
50	0xbe09b748	-0.13448822
51	0x3e979cde	0.29611868
52	0xbec0914f	-0.37610862
53	0x3ea05389	0.31313732
54	0xbf01c746	-0.5069469
55	0x3eaac593	0.33353862
56	0x3d275aeb	0.04085819
57	0xbe6f12a6	-0.23346958
58	0x3eb0c83a	0.3452776
59	0xbe784630	-0.24245524
60	0x3e6b3c9e	0.22972342
61	0xbcacab86	-0.021077882
62	0x3e95a163	0.2922469
63	0xbdaf477b	-0.08558556
64	0x3c89594f	0.016766218
65	0xbbca1b98	-0.00616784
66	0x3d3682eb	0.044558447
67	0x3e7dcdfe	0.24785611
68	0xbca952d1	-0.020669373
69	0x3c73e2ca	0.014885614
70	0x3f0f6482	0.5601274
71	0x3e26dad4	0.16294414
72	0x3d0c5aa6	0.034266137
73	0x3e25e529	0.16200699
74	0x3c1f54e6	0.009724831
75	0x3f03ee00	0.51535034
76	0x3d9495ed	0.072551586
77	0xbe599a18	-0.21250188
78	0xbde0cfb9	-0.1097712
79	0x3c91a05e	0.017776664
80	0x3ea55437	0.32290813
81	0xbe5b7549	-0.2143146
82	0xbe9ee0d6	-0.3103091
83	0x3e9bae16	0.30406255
84	0x3ea35ebd	0.31908217
85	0xbdd75953	-0.10515084
86	0xbdaa48e1	-0.08314682
87	0xbbe330cd	-0.0069333077
88	0x3d3c3fc7	0.04595926
89	0xbeb17a15	-0.34663454
90	0x3ed4979f	0.41521928
91	0x3db31e68	0.08746034
92	0x3e6c5ac6	0.23081502
93	0x3e5f696d	0.2181756
94	0x3e775422	0.24153188
95	0x3d8a04c6	0.06739192
96	0xbd03c123	-0.03216661
97	0xbe3df4ab	-0.18550365
98	0xbda769f6	-0.08174507
99	0x3e91666a	0.28398448
100	0x3c32cf44	0.010913674
101	0xbeb0adea	-0.34507686
102	0x3e184f32	0.1487396
103	0xbe3dd70d	-0.18539067
104	0xbc08172b	-0.008306305
105	0x3d7618fb	0.060082417
106	0x3ed98052	0.42480713
107	0xbd3d666f	-0.046240266
108	0xbe3c6fff	-0.18402098
109	0xbe609da7	-0.2193514
110	0x3ecbac46	0.39779872
111	0xbc9296f1	-0.01789424
112	0x3dd9c737	0.106337
113	0x3e44a56b	0.19203727
114	0xbe3f299a	-0.18668213
115	0x3d7e4d4e	0.062085442
116	0xbe8b1205	-0.27162185
117	0xbe8d51c9	-0.2760146
118	0xbd85aba0	-0.065268755
119	0x3e44ae09	0.19207014
120	0xbd28d5c7	-0.0412195
121	0x3ca331fd	0.019921297
122	0x3d564c13	0.052318644
123	0x3d9894c0	0.07450247
124	0x3d683ebb	0.05670045
125	0x3e9af08e	0.30261654
126	0x3eca6f1f	0.39537904
127	0xbe223df6	-0.15843949
128	0x3e840edb	0.25792584
129	0x3d6cacd0	0.057781994
130	0x3ec9b5b3	0.39396438
131	0x3d847632	0.064678565
132	0xbe785bbd	-0.24253745
133	0x3e0d926c	0.13825387
134	0x3dd6c1ef	0.10486209
135	0xbba0413a	-0.004890588
136	0x3ed62a8b	0.41829333
137	0x3d96d744	0.073652774
138	0x3d37ab39	0.044841025
139	0x3da51521	0.08060671
140	0x3dc946cb	0.09827956
141	0xbe9a50cc	-0.30139768
142	0x3d9f02c8	0.07764202
143	0x3e9e6b88	0.30941415
144	0x3ef5c493	0.48001537
145	0x3ec5e3af	0.3865027
146	0xbd54b3a7	-0.051929142
147	0x3cb684df	0.022280155
148	0x3da2c5eb	0.07947906
149	0xbe0c718c	-0.1371519
150	0xbecae4c1	-0.3962765
151	0xbe06b61c	-0.13155407
152	0x3eb117ba	0.34588414
153	0x3bdf88d5	0.0068217316
154	0x3e6bb0cd	0.23016663
155	0xbeebd808	-0.46063256
156	0xbd43de73	-0.047819566
157	0x3efac479	0.48978022
158	0x3d2ced51	0.04221851
159	0xbd470653	-0.048590016
160	0x3eb4253f	0.35184667
161	0x3bcdfef6	0.006286497
162	0xbe656646	-0.22402295
163	0x3e6e6639	0.23281182
164	0x3ee0301d	0.43786708
165	0x3d455251	0.048174206
166	0xbe1f13e6	-0.15534934
167	0xbcad22de	-0.02113479
168	0x3e9e14a5	0.30875126
169	0xbe02998b	-0.12753884
170	0x3c8a6dda	0.016898084
171	0xbe55a98e	-0.20865461
172	0x3ea547ea	0.3228143
173	0xbe1029e5	-0.14078481
174	0xbe8269a3	-0.2547122
175	0x3df442d1	0.11926807
176	0x3dee315b	0.116305076
177	0x3e81c7b5	0.25347677
178	0x3cd0efd9	0.025504993
179	0x3dbc34d8	0.09189767
180	0xbe23b245	-0.15985973
181	0x3d3a8ea3	0.045546185
182	0x3e76b16b	0.24091117
183	0x3ec43815	0.38324037
184	0x3b275485	0.0025532555
185	0x3e285295	0.16437753
186	0xbea2cfe0	-0.3179922
187	0x3ed7e635	0.42167822
188	0x3e88744d	0.2665123
189	0xbe5c1092	-0.21490696
190	0x3ebcd3dc	0.36880386
191	0x3d4ae755	0.04953702
192	0x3db46860	0.088089705
193	0x3ed54990	0.41657686
194	0xbda33deb	-0.07970794
195	0xbe2764ad	-0.16346999
196	0xbc35c554	-0.01109441
197	0xbe8fc501	-0.2807999
198	0x3eac279e	0.33623976
199	0xbea0afad	-0.3138403
200	0x3d6ca715	0.05777653
201	0x3f0a42bf	0.54008096
202	0xbe51a8a9	-0.20474495
203	0x3e89209b	0.26782688
204	0xbc022e48	-0.007945605
205	0x3e3a42e3	0.18189578
206	0x3e960ef8	0.29308295
207	0x3ccfb15b	0.025353124
208	0xbe495f2d	-0.19665213
209	0xbcab548a	-0.020914335
210	0x3f032c97	0.51239914
211	0xbd97b476	-0.07407467
212	0x3eb2bd37	0.34909984
213	0xbe2213db	-0.15827887
214	0xbdac4fe9	-0.08413679
215	0xbd2588c1	-0.04041362
216	0xbe2d6e33	-0.16936569
217	0xbe51ca80	-0.20487404
218	0x3dcc2a1a	0.09968968
219	0xbe3da0cc	-0.1851837
220	0x3e88411a	0.2661217
221	0xbebceaa9	-0.36897781
222	0xbd42928c	-0.04750304
223	0x3e88cce5	0.26718822
224	0x3cf4f158	0.029900238
225	0xbd98d7d8	-0.07463044
226	0x3ec84387	0.3911402
227	0x3eb27b12	0.3485952
228	0x3daa894f	0.08326971
229	0xbcbae994	-0.022816457
230	0x3e053c34	0.13011247
231	0x3d1673d2	0.03673155
232	0x3ebf0fb6	0.37316674
233	0x3d9783f0	0.07398212
234	0x3ecbab57	0.3977916
235	0x3d97bebc	0.074094266
236	0x3e8d8039	0.2763689
237	0x3e5a56b0	0.21322131
238	0x3e84f36f	0.25966975
239	0x3ea8d52f	0.32975146
240	0xbd21777f	-0.0394206
241	0x3ea2c167	0.3178818
242	0x3e44776e	0.19186184
243	0x3d233e58	0.039854378
244	0x3ceffac1	0.029294373
245	0xbc074cfc	-0.008258101
246	0x3d56c71c	0.05243598
247	0x3de719c5	0.11284212
248	0xbe6fe5da	-0.23427525
249	0x3cc2095b	0.023686102
250	0xbe67b11e	-0.22626159
251	0x3d53a42b	0.051670235
252	0x3ecb4a46	0.39705104
253	0x3e144389	0.14478888
254	0xbe9cea5f	-0.3064756
255	0x3e44f634	0.19234544

4.bias f4 [3]
0	0x3da62919	0.081133075
1	0x3e75c391	0.24000384
2	0x3e30c2aa	0.17261758
